…
D:\Users\MilkClouds\_PythonLab\python_고양이인식_구름인식_GAN\구름이미지분석\cloud_keras.py:30: UserWarning: Update your `Conv2D` call to the Keras 2 API: `Conv2D(32, (3, 3), input_shape=(50, 50, 3..., padding="same")`
  input_shape=in_shape))
D:\Users\MilkClouds\_PythonLab\python_고양이인식_구름인식_GAN\구름이미지분석\cloud_keras.py:34: UserWarning: Update your `Conv2D` call to the Keras 2 API: `Conv2D(64, (3, 3), padding="same")`
  model.add(Convolution2D(64, (3, 3), border_mode='same'))
_________________________________________________________________
Layer (type)                 Output Shape              Param #   
=================================================================
conv2d_1 (Conv2D)            (None, 50, 50, 32)        896       
_________________________________________________________________
activation_1 (Activation)    (None, 50, 50, 32)        0         
_________________________________________________________________
max_pooling2d_1 (MaxPooling2 (None, 25, 25, 32)        0         
_________________________________________________________________
dropout_1 (Dropout)          (None, 25, 25, 32)        0         
_________________________________________________________________
conv2d_2 (Conv2D)            (None, 25, 25, 64)        18496     
_________________________________________________________________
activation_2 (Activation)    (None, 25, 25, 64)        0         
_________________________________________________________________
conv2d_3 (Conv2D)            (None, 23, 23, 64)        36928     
_________________________________________________________________
max_pooling2d_2 (MaxPooling2 (None, 11, 11, 64)        0         
_________________________________________________________________
dropout_2 (Dropout)          (None, 11, 11, 64)        0         
_________________________________________________________________
flatten_1 (Flatten)          (None, 7744)              0         
_________________________________________________________________
dense_1 (Dense)              (None, 512)               3965440   
_________________________________________________________________
activation_3 (Activation)    (None, 512)               0         
_________________________________________________________________
dropout_3 (Dropout)          (None, 512)               0         
_________________________________________________________________
dense_2 (Dense)              (None, 10)                5130      
_________________________________________________________________
activation_4 (Activation)    (None, 10)                0         
=================================================================
Total params: 4,026,890
Trainable params: 4,026,890
Non-trainable params: 0
_________________________________________________________________
Epoch 1/10
2019-10-07 00:11:58.302196: I tensorflow/core/platform/cpu_feature_guard.cc:141] Your CPU supports instructions that this TensorFlow binary was not compiled to use: AVX2
2019-10-07 00:11:58.650948: I tensorflow/core/common_runtime/gpu/gpu_device.cc:1432] Found device 0 with properties: 
…
