_________________________________________________________________
Layer (type)                 Output Shape              Param #   
=================================================================
conv2d_1 (Conv2D)            (None, 16, 18, 18)        592       
_________________________________________________________________
activation_1 (Activation)    (None, 16, 18, 18)        0         
_________________________________________________________________
conv2d_2 (Conv2D)            (None, 32, 16, 16)        4640      
_________________________________________________________________
activation_2 (Activation)    (None, 32, 16, 16)        0         
_________________________________________________________________
flatten_1 (Flatten)          (None, 8192)              0         
_________________________________________________________________
dense_1 (Dense)              (None, 256)               2097408   
_________________________________________________________________
activation_3 (Activation)    (None, 256)               0         
_________________________________________________________________
dense_2 (Dense)              (None, 3)                 771       
=================================================================
Total params: 2,103,411
Trainable params: 2,103,411
Non-trainable params: 0
_________________________________________________________________
Episode     1/50000 | Loss 1174.4384 | Exploration 1.00 | Fruits  0 | Timesteps   24 | Total Reward   -1
Episode     2/50000 | Loss 1190.3268 | Exploration 1.00 | Fruits  0 | Timesteps    8 | Total Reward   -1
…
